AI_Snake_model.pth (torch, 304874 bytes, 26 tensors)

fc1.weight f4 [128, 11]
000000 6b e8 18 be 5c 55 56 3d 2b 71 e9 3e c5 ac 8c 3c
       -0.1493241 0.0523275 0.45594153 0.017172227
000010 05 72 03 3e c3 cd f1 be a0 85 2f 3e 99 2b e4 3d
       0.12836464 -0.47227296 0.17140818 0.11141128
000020 e0 31 eb bd 88 27 aa 3e d2 18 93 bd 52 f2 80 3e
       -0.11484122 0.33233285 -0.071824685 0.25184876
000030 fd 37 ac be b1 8d 82 be 05 64 c1 3d 77 39 81 3e
       -0.33636466 -0.25498727 0.09442905 0.25239155
000040 44 94 bc 3e 19 f4 01 3d 61 78 67 be 9e ff a9 bd
       0.36831868 0.03172693 -0.22604515 -0.08300708
000050 49 19 6d 3e 06 37 30 bd 65 0e 96 be b6 22 71 bd
       0.23154177 -0.043021224 -0.29307857 -0.058870994
000060 34 80 97 3d 4e d4 80 3e fd c0 bc bd ef e0 b6 be
       0.073975 0.25161976 -0.09216497 -0.35718486
000070 48 77 c1 3e c3 5f 13 3e e2 7b c7 be ce bc 89 be
       0.37786317 0.14391999 -0.38961703 -0.2690186
000080 6a dd 36 be 62 63 02 bf d2 0b b0 3e fe 87 1d 3e
       -0.178579 -0.50932896 0.34384018 0.15383908
000090 23 c6 45 3e d8 22 1f 3e 5e 2d d7 3d bc cd 87 3d
       0.19313864 0.15540636 0.105067 0.066310376
0000a0 af d5 d9 bd 54 6a 14 be 41 4e 6d bd af f3 10 be
       -0.1063646 -0.14493686 -0.057935957 -0.14155458
0000b0 d4 43 f5 3d 76 07 00 be ce 19 c5 be c8 63 98 be
       0.11975828 -0.12502846 -0.3849625 -0.29763627
0000c0 a2 1a 1e bd c3 f4 88 bd 0d 07 96 3e b3 12 95 be
       -0.038599618 -0.066873096 0.29302254 -0.2911583
0000d0 42 3b 37 3e 5d 2a 48 be a2 f4 0b be 01 56 00 3f
       0.17893699 -0.1954741 -0.13667539 0.5013123
0000e0 7d 90 06 bf c1 e5 92 bd 52 cb 27 bc 80 c4 5c 3c
       -0.5256422 -0.07172728 -0.010241346 0.013474584
0000f0 9f a2 41 bd 43 c4 5a 3c a5 94 35 be 25 36 6e bd
       -0.04727423 0.0133524565 -0.17732485 -0.058157105
000100 71 a8 fc bd 0e 3b 98 bd 0d 03 2f 3f e2 3c c4 3e
       -0.12336815 -0.07433139 0.6836403 0.383277
000110 1d d3 88 be ff 47 cf 3c 65 63 0f 3e fe 04 ed 3d
       -0.26723567 0.025302885 0.1400276 0.11573218
000120 63 a6 bf bd e7 74 c1 bd f8 c8 a1 3d d5 b6 f0 bd
       -0.093579076 -0.094461255 0.0789966 -0.117536224
000130 cf e0 35 bd 15 97 e8 be 3b ee 7c 3d 93 e2 ff 3d
       -0.044403847 -0.45427766 0.06175063 0.124943875
000140 79 69 d5 3e 04 bc d0 bd 00 d1 5c be 81 0b 7b 3e
       0.41682032 -0.10192111 -0.21564102 0.24516107
000150 91 54 d4 3e 4d c1 47 be 70 8c 1f be e9 15 97 bd
       0.4147077 -0.19507332 -0.15580916 -0.07377226
000160 9d 03 ba 3e 0c 4d bc be 5e 3a b5 bd 4e 56 71 be
       0.36330882 -0.36777532 -0.08849023 -0.23568079
000170 6f a3 65 3e 20 a1 65 3e cd 00 7b 3e f6 05 7e 3e
       0.22425626 0.22424746 0.24512024 0.24806961
000180 cf 61 32 be 87 a4 80 3e cb b1 96 be f0 20 d5 be
       -0.17420124 0.25125524 -0.2943252 -0.41626692
000190 c3 e8 c8 bc 04 80 d1 bd 68 6f 49 be 6d 56 81 3e
       -0.024525052 -0.10229495 -0.19671404 0.2526125
0001a0 7e aa a6 3e 30 f1 b6 be 6d 86 27 3e 3f 03 f4 bd
       0.3255195 -0.35730886 0.16359873 -0.11914682
0001b0 8d 37 d8 ba db 4a b3 3e 30 af 7c 3e 2b 98 aa be
       -0.0016496048 0.35018048 0.24676204 -0.3331922
0001c0 dc 19 7c be 75 24 a6 bd cf 67 88 3d 11 6b 2e bd
       -0.2461924 -0.081124224 0.06660425 -0.042582575
0001d0 3b ad 36 be 9a 7d 36 3e 3a 40 a6 3d 59 4a a1 3d
       -0.1783952 0.1782135 0.08117719 0.07875509
0001e0 a4 9a 67 3e 32 4d 04 3f cd 64 b9 bd 92 e9 03 3f
       0.22617584 0.5168029 -0.09052429 0.51528275
0001f0 de d9 db bd 30 24 c4 bd 27 83 2c 3e 94 73 eb bd
       -0.10734914 -0.09577215 0.16846906 -0.11496654
000200 ef a9 7a 3d 32 b0 98 3d 7e 8a 99 3e f9 98 42 bb
       0.061197218 0.074554816 0.29988474 -0.002969323
000210 db 7d 1a bf 72 6a 88 be 86 e6 70 be f2 17 33 3e
       -0.6034829 -0.2664371 -0.23525438 0.17489603
000220 0d f2 2b 3d 79 38 05 3e cf 8f 21 3d 3d 1f 92 bc
       0.041978884 0.13009824 0.039443787 -0.017837161
000230 ea 35 d7 bd 2f 3a 8d 3c 51 45 d6 be 28 a0 d7 be
       -0.1050833 0.017239658 -0.4184976 -0.42114377
000240 a6 82 6b 3e f0 bf 8a 3d 9e d1 79 be fb 8f cf be
       0.22999057 0.067748904 -0.24396369 -0.40539536
000250 f2 4c c0 bc dd 29 10 3d f7 04 ef 3d 99 b2 33 3e
       -0.02347419 0.035196174 0.11670869 0.17548598
000260 18 d7 46 3e fe a8 94 be e1 9f cd 3e 53 5f 13 3e
       0.19417989 -0.2903518 0.4016104 0.14391832
000270 fa 67 1b be 5e 24 12 3e 7b da d3 be 9d 89 d2 3d
       -0.15176383 0.14271685 -0.41377625 0.10280154
000280 43 b0 05 be 60 46 60 be 40 6d dc 3c 71 91 7b 3e
       -0.1305552 -0.21901846 0.026907563 0.245672
000290 e6 5d 08 be e1 a4 00 bd 9b e4 11 be da a1 20 be
       -0.1331707 -0.03140724 -0.14247362 -0.15686741
0002a0 36 54 ba be ed 90 3f 3e b9 5a 39 3e c5 e0 a6 be
       -0.36392373 0.18707629 0.18101014 -0.3259336
0002b0 b7 0e 45 3e 6e 4f 96 be 8f 0d 96 be 16 1f 3d 3e
       0.19243895 -0.29357475 -0.2930722 0.1846889
0002c0 e5 6d 8a 3e 95 1f e3 3e de 48 b8 bd 29 11 b5 be
       0.27036968 0.44360033 -0.08998273 -0.35364655
0002d0 7b 8a be 3d e9 d0 88 3e 48 4a 84 be 18 5c f7 3d
       0.09303757 0.26721886 -0.25837922 0.12078112
0002e0 32 36 02 bd 4b 2f 83 be 1e 9c df 3d b5 2e f5 3e
       -0.031789966 -0.2562202 0.10918449 0.47887197
0002f0 df 8b 95 be aa 3c 23 be ec 23 3f 3d fc 05 f3 bc
       -0.29208276 -0.1594111 0.046665117 -0.02966594
000300 7d da 50 3d fe c4 21 3e b0 29 f6 bc 56 42 76 3e
       0.050989617 0.15797803 -0.030049175 0.24048743
000310 0e 39 88 3d c5 2e a3 3d c3 6a b1 be 48 b1 b4 be
       0.06651507 0.07967905 -0.34651765 -0.35291505
000320 03 95 ad be e7 f9 02 be 14 28 81 be 2b 46 6b 3d
       -0.3390275 -0.12790643 -0.2522589 0.057439964
000330 81 56 92 3e de 3a bd 3d 7b 85 34 be af 38 b2 be
       0.28581622 0.09239744 -0.17629044 -0.3480887
000340 32 fa 66 3d 7c 32 8a bd 17 6d 2f 3f 36 f6 97 bd
       0.05639095 -0.067479104 0.6852583 -0.07420008
000350 3e 06 24 be f3 86 40 bd 47 65 3d be 9b 90 b8 3d
       -0.16018006 -0.047003698 -0.18495665 0.09011956
000360 23 01 45 3d ab 05 c4 3d 95 6f ab 3d cb 0e 43 3d
       0.048096787 0.095713936 0.08370892 0.04762153
000370 5b f8 c0 3d 1b 1b 35 3f fe b1 9f 3e 63 4f 08 bd
       0.0942237 0.70744485 0.31190485 -0.033278834
000380 f6 af 60 3c e8 c7 ee 3d ab 09 21 3c 29 ce cd bd
       0.013713827 0.11659223 0.009828965 -0.100490876
000390 f0 b4 7c be 36 24 a5 bd ee 29 1b be 46 90 29 3e
       -0.24678397 -0.08063547 -0.15152714 0.16558942
0003a0 0e 0f 26 bd 3a 01 e7 be 89 d1 1c be 8b 23 56 3e
       -0.0405417 -0.45118123 -0.15314306 0.20911996
0003b0 82 5b bf be 4d cd a1 3d 72 89 8b 3d 6f bf f2 3d
       -0.37374502 0.07900486 0.06813325 0.11852919
0003c0 2f d2 4e 3e 3b 38 2f 3d b3 ca e6 3e c1 75 74 be
       0.20197366 0.042778235 0.45076522 -0.23873045
0003d0 70 ee a9 3e 15 75 4e be b8 5a 72 be 0c b6 03 be
       0.33189726 -0.20161851 -0.23667419 -0.12862414
0003e0 32 fd 4a be cd db a0 3e 8f 04 86 bd 57 04 88 3e
       -0.19823149 0.31417695 -0.06543838 0.2656581
0003f0 c3 f8 3e bd b6 0f a5 bd 1e 27 a6 be 4b f1 ea 3b
       -0.046623956 -0.08059637 -0.3245172 0.0071698776

fc1.bias f4 [128]
000000 59 92 d0 3e 3e 13 e7 be 21 86 63 3e 2f 21 f6 bd
       0.40736654 -0.45131868 0.22219135 -0.12018048
000010 17 44 c7 3e 0f fd 0e 3e 81 e8 4e be 0e 84 00 be
       0.38919136 0.13963722 -0.2020588 -0.12550375
000020 3a da 9f bc 9e 36 2e 3e 47 b8 03 3e d3 ac 3f be
       -0.019513238 0.17013022 0.12863265 -0.18718271
000030 dc 4c 2e be f1 9c 10 3e 67 2d 3c be fe a2 43 be
       -0.17021507 0.14122368 -0.18376695 -0.19105145
000040 48 dc 0c 3e d6 fc 62 be 1c 2a 4c 3e 90 9c 8f 3e
       0.13755906 -0.22166762 0.19937938 0.28049135
000050 19 f0 04 be 44 dd 2f be a8 f5 dd 3e 3c 77 ab 3e
       -0.12982215 -0.1717425 0.43351483 0.33489406
000060 d5 5e 85 3e cf 67 a0 be c0 22 b2 be 43 3c 25 be
       0.26048914 -0.313292 -0.34792137 -0.1613627
000070 e0 38 cd 3e 8d 46 77 3e cb 34 f0 3e 03 ac 34 3b
       0.40082455 0.24148007 0.46915278 0.0027568347
000080 7a c6 6c bd 2d 39 fe bd 89 56 83 3e 5a 4f 27 be
       -0.05780647 -0.12413249 0.2565196 -0.16338864
000090 c2 4c e4 3d 7f 61 d3 be d7 ed b9 bc b8 41 16 3e
       0.11147453 -0.4128532 -0.022696419 0.14673507
0000a0 bc 8c 95 be 1b 7f ba be 43 b6 fc 3d 69 21 15 3e
       -0.29208934 -0.364251 0.12339451 0.14563526
0000b0 c5 ef 77 3c 3a e0 7a 3e b5 bb bf be d5 23 fc bd
       0.015132849 0.24499598 -0.37447897 -0.12311522
0000c0 ac 5e a9 be 2d c3 e7 3d da d9 c9 bc 7e 92 58 be
       -0.3308004 0.11316524 -0.024640013 -0.21149632
0000d0 31 65 04 3e fa b7 49 be b5 ce d0 3e 01 4c 99 3e
       0.12929226 -0.19699088 0.40782705 0.299408
0000e0 8f 8e f0 bc 2d 80 0b 3e 34 85 5c bd 81 e6 23 3d
       -0.029364852 0.13623114 -0.05383797 0.040014748
0000f0 38 4a 57 3e 98 c1 98 3e 7d 8a b2 3e c8 e7 89 be
       0.21024406 0.298352 0.34871283 -0.26934648
000100 cc 15 7b be 2d d1 bc 3c fe 73 af 3e dc 69 d6 bd
       -0.24520034 0.023048962 0.34268183 -0.1046941
000110 97 41 99 3e 40 30 0b be 0e be 86 3e 6f 1d 68 be
       0.29932854 -0.13592625 0.26316875 -0.22667478
000120 84 e8 d6 be 60 43 a4 bd 93 ae 27 be fc ce 6f 3e
       -0.4197427 -0.08020663 -0.16375189 0.23418802
000130 09 b8 9b be 45 d7 c6 3c a1 4b c1 3e d2 26 87 3e
       -0.30413845 0.02427257 0.37753013 0.26396805
000140 02 b1 a1 3e 86 4d b1 3d d4 1f 43 3e 7d dd 08 3e
       0.3158036 0.086573645 0.1905511 0.13365741
000150 d2 6f 85 bd f6 d5 20 bd 08 74 d0 be ed 22 65 bd
       -0.06515469 -0.03926655 -0.40713525 -0.05594151
000160 e8 b8 c2 3d 72 f6 84 3d 4a 23 59 be 0a 1a 29 be
       0.09507924 0.06492318 -0.21204868 -0.1651384
000170 89 45 80 3d d2 66 ac be 1b 44 b7 be 82 df 14 be
       0.06263263 -0.33672196 -0.35794148 -0.14538386
000180 bb 85 34 3d 47 6c 71 3d 6d ab a5 be f8 ff 52 be
       0.044072848 0.058941152 -0.3235735 -0.20605457
000190 e9 f1 a1 3e d0 b4 47 3e c7 40 6e 3e 81 89 0c be
       0.31629875 0.19502568 0.23266898 -0.13724329
0001a0 74 5f be 3e 5a 5f cd 3e 74 1d c7 3d 6e 5e 1b bd
       0.371822 0.4011181 0.097224146 -0.037931852
0001b0 28 01 9b 3d fb cd d6 be fa 10 09 be ac 57 9f 3e
       0.0756858 -0.41954026 -0.13385382 0.31121576
0001c0 0e dd bd be 18 17 4e be 57 7d 28 3e 58 fd df bc
       -0.37082714 -0.20125997 0.16454063 -0.027342483
0001d0 16 5e 32 be 97 6d 3e 3e 02 f1 93 3e 08 a4 8e be
       -0.17418703 0.18596493 0.28894812 -0.2785952
0001e0 75 b2 c3 3e 51 be ec 3d b8 43 fb bd 20 01 08 3e
       0.3822209 0.115597375 -0.12268776 0.13281679
0001f0 c0 17 a3 3e 44 d4 68 3e 8b 72 d1 bd c7 fd b0 bd
       0.31854057 0.22737223 -0.102269255 -0.08642154

bn1.weight f4 [128]
000000 cf c1 5b 3f ac 2c 70 3f af 32 70 3f d2 1d 85 3f
       0.85842603 0.93818164 0.9382734 1.0399725
000010 ea f0 70 3f 30 a7 a3 3f 34 1a 8a 3f a6 a2 5b 3f
       0.94117606 1.2785397 1.0789247 0.85795057
000020 fb 35 92 3f be 17 96 3f 9a de 78 3f ce 88 8b 3f
       1.1422724 1.1725996 0.97214663 1.0901124
000030 e3 9c a4 3f 3c 66 84 3f 93 69 8e 3f df e4 76 3f
       1.2860378 1.03437 1.1125969 0.9644298
000040 fc 0c 73 3f 33 30 60 3f 26 3e 90 3f 13 ee a4 3f
       0.9494169 0.87573546 1.1268966 1.2885154
000050 92 54 6a 3f 0b f6 7c 3f 7a f1 87 3f ad 42 83 3f
       0.91535294 0.9881293 1.0620568 1.0254723
000060 66 50 74 3f 8a e8 87 3f 9f 8e 84 3f bb 39 5d 3f
       0.9543518 1.061784 1.0356025 0.86416215
000070 4b 8a 6b 3f e5 c2 87 3f 72 a9 61 3f d4 13 8a 3f
       0.92007893 1.0606352 0.8814918 1.0787301
000080 bd ba 85 3f 72 12 75 3f 4a 64 86 3f 15 6c 9d 3f
       1.0447613 0.9573127 1.0499356 1.2298609
000090 3c 74 81 3f 90 8a 8b 3f 92 33 7a 3f 47 e5 7c 3f
       1.0113597 1.0901661 0.9773494 0.9878735
0000a0 02 32 73 3f 4e 56 82 3f be 9a 69 3f 62 f8 88 3f
       0.9499818 1.0182588 0.9125174 1.07008
0000b0 a8 ca 82 3f 5c 05 70 3f 6b e2 62 3f 0b 36 7b 3f
       1.0218096 0.9375818 0.88626736 0.9812934
0000c0 63 fe 6a 3f 2e 99 7f 3f 7c 6d 88 3f e9 a2 87 3f
       0.91794413 0.9984311 1.0658412 1.0596591
0000d0 51 8c 98 3f 06 a1 95 3f 17 f7 79 3f 71 ac 89 3f
       1.1917821 1.1689765 0.97642654 1.075575
0000e0 b7 77 8d 3f ca 27 99 3f c7 30 98 3f 5b 0c 8b 3f
       1.1052159 1.1965268 1.1889886 1.0863146
0000f0 e6 8f 92 3f af f7 86 3f 78 c6 7d 3f f9 e1 88 3f
       1.1450164 1.0544337 0.99130964 1.0693961
000100 ee ec 8b 3f a8 b4 7f 3f 5e f3 79 3f de 90 7b 3f
       1.093168 0.99885035 0.97636974 0.98267925
000110 06 86 85 3f f0 b2 80 3f a4 38 69 3f 37 8e 54 3f
       1.0431526 1.0054607 0.9110205 0.830295
000120 16 bf 88 3f 40 5b a2 3f b0 3d 92 3f dd 40 8b 3f
       1.0683315 1.2684097 1.1425076 1.087917
000130 05 bc 8b 3f 63 83 8b 3f 1b b4 97 3f 0c 3a 85 3f
       1.0916754 1.0899471 1.1851839 1.040834
000140 a6 e9 82 3f 93 00 85 3f 67 ef 9b 3f 18 88 80 3f
       1.0227554 1.03908 1.2182435 1.0041533
000150 47 40 94 3f d3 b1 9b 3f 95 2c 47 3f 1a d0 6c 3f
       1.1582116 1.2163643 0.778024 0.9250504
000160 2d 57 88 3f d4 c8 64 3f 5e 99 93 3f 48 e8 84 3f
       1.0651604 0.8936894 1.1531179 1.0383387
000170 67 bd 82 3f 34 b2 94 3f c5 59 84 3f 8d da 81 3f
       1.0214051 1.1616883 1.0339895 1.0144821
000180 f2 1b 81 3f 61 e4 49 3f b8 e9 92 3f 92 3b 86 3f
       1.0086653 0.78864104 1.1477575 1.048693
000190 01 96 98 3f 7f e2 60 3f 01 f8 8f 3f 5b 6d 93 3f
       1.1920778 0.87845606 1.124756 1.1517748
0001a0 84 d7 7c 3f 0b 1c 9b 3f 4a 6c 8e 3f a5 83 67 3f
       0.9876635 1.2117933 1.1126797 0.9043525
0001b0 fc 06 73 3f 0e 3b 82 3f ae 8e 4a 3f cc c7 93 3f
       0.9493253 1.0174272 0.7912396 1.1545348
0001c0 09 c7 8a 3f 57 1b 84 3f be 55 8e 3f bb 42 79 3f
       1.0841991 1.0320843 1.1119916 0.9736745
0001d0 3d e8 86 3f df 37 76 3f ef a3 87 3f f0 e1 64 3f
       1.0539623 0.96179 1.0596904 0.89407253
0001e0 4f ae 92 3f ae ad 92 3f 70 dd 81 3f e2 31 95 3f
       1.1459445 1.1459253 1.0145702 1.1655848
0001f0 1e 0d 91 3f ee ae 85 3f 87 65 83 3f a3 0d 74 3f
       1.1332128 1.0444009 1.0265359 0.9533331

bn1.bias f4 [128]
000000 9c 1a 18 be 55 aa 0e be d7 ba 62 be c9 bf 17 3d
       -0.148539 -0.13932164 -0.22141586 0.037048135
000010 b6 03 a3 be 38 89 23 be 7c 8e f5 be 4d fa d9 be
       -0.3183877 -0.15970314 -0.4796027 -0.42573777
000020 a1 b2 5e be 1f 3b 8f be 81 87 17 be f7 f6 63 be
       -0.21747829 -0.27974793 -0.14797784 -0.22262178
000030 5a 82 fd 3d e6 61 0b be 43 04 d5 3d a3 f3 d8 be
       0.12378378 -0.13611564 0.104012035 -0.4237338
000040 ba 6b 71 be 2d cb b4 be fa 75 0f 3c 29 e3 fb bc
       -0.2357625 -0.3531126 0.008756155 -0.030747967
000050 86 14 1d bf f6 c6 14 bd 0d cf 18 be 2b 0a 57 be
       -0.6135944 -0.036322556 -0.14922734 -0.20999973
000060 a1 fc 6e be c7 d3 96 bd d5 1c 78 be cb f7 e5 be
       -0.23338558 -0.07364612 -0.24229749 -0.44915614
000070 ff 00 d4 be c8 28 cd be 68 d3 c9 be 7b 6b 92 be
       -0.4140701 -0.40070176 -0.39419103 -0.28597626
000080 88 df 59 be ff 67 ab be c6 64 c0 bd e2 2a c2 be
       -0.21276677 -0.3347778 -0.09394221 -0.37923342
000090 0a 66 63 be 26 1a 56 be 48 df 1d bf c3 e2 fa 3d
       -0.22206894 -0.20908412 -0.61668825 0.122502826
0000a0 3d 88 dc bd 45 93 52 be 18 7f 85 3d e8 c3 4b be
       -0.10768173 -0.20563991 0.06518382 -0.19898951
0000b0 27 9f 20 3e 4c 9d 52 bd bd e5 23 bf 6b cb b4 be
       0.15685712 -0.05141954 -0.6402243 -0.35311446
0000c0 e0 dc 7b be 98 1a 93 be 81 05 40 be d9 28 16 be
       -0.24595976 -0.28731227 -0.187521 -0.1466402
0000d0 a9 93 b3 be 58 fe f2 be c8 53 0b 3b 0f 3f 33 be
       -0.35073593 -0.47459674 0.0021259654 -0.17504524
0000e0 5b bf a6 be 05 4d 53 be 65 68 95 be 05 34 86 3b
       -0.32567868 -0.2063485 -0.2918121 0.0040955567
0000f0 45 b9 bd be ae f7 11 3e d0 a1 1d 3d 64 09 50 be
       -0.37055412 0.14254639 0.038484395 -0.20316082
000100 6d 82 c7 be c6 85 9e be fb 8c e9 bd f0 a1 f6 3d
       -0.38966694 -0.30961436 -0.11403843 0.12042606
000110 29 fb 1f bd cf 10 20 be 3b 5c cd be 75 a7 81 be
       -0.039057884 -0.15631412 -0.4010943 -0.25323072
000120 f5 dc 07 bf e5 70 63 3d 61 9a 21 bd c7 df 02 bd
       -0.5307153 0.055527586 -0.039453868 -0.031951692
000130 ff e8 52 3e 9a 9b bd be e0 7e 14 be 26 c9 84 be
       0.20596693 -0.37032777 -0.14501524 -0.25934714
000140 36 6c 66 be 27 0c 75 be be 6f 2e be 40 58 d4 be
       -0.22502217 -0.23930417 -0.17034814 -0.4147358
000150 28 f7 a7 3d 73 7e 81 bd 4e 7f 83 be 16 d3 a7 be
       0.08201438 -0.063229464 -0.25683063 -0.32778233
000160 48 9e 9f be 96 2b b4 be b6 5f 8b be df 9e df be
       -0.31175447 -0.35189503 -0.2722146 -0.43675897
000170 96 76 6f be d6 b3 e6 bd 29 98 84 bd 1a 93 3c be
       -0.2338508 -0.1126477 -0.06474335 -0.1841549
000180 26 f5 9d be d2 53 cc be 34 d8 3b bd 23 c2 94 bd
       -0.30851096 -0.399077 -0.045860484 -0.07263591
000190 a9 71 64 be 4d ba 70 be f2 55 39 3d e2 61 c3 bc
       -0.22308983 -0.23508568 0.04524798 -0.023850385
0001a0 d2 a4 a4 be 2d eb 74 be 26 22 07 bf b1 34 c4 be
       -0.32156998 -0.23917837 -0.5278648 -0.3832145
0001b0 a1 40 92 be d5 9f cd bd 70 58 12 3e a1 ba 19 3e
       -0.28564933 -0.10040251 0.14291549 0.150126
0001c0 a5 1d 2c 3c a3 15 9c be a7 69 d1 bd c6 f0 e1 be
       0.010505115 -0.30485258 -0.1022523 -0.44129008
0001d0 4f 0c 33 3d 85 64 b6 be 43 35 3c be 30 8d d0 be
       0.04371291 -0.35623565 -0.18379693 -0.40732718
0001e0 61 98 08 be 17 73 4d be 6a dd 72 be b3 8d 16 be
       -0.13339378 -0.20063435 -0.23717275 -0.14702491
0001f0 01 bb 15 be 2b 29 38 3e 02 c5 5e be 1d e6 8a bc
       -0.14622118 0.17984454 -0.2175484 -0.01695543

bn1.running_mean f4 [128]
000000 b8 69 1a 3f 47 6e d0 be df 70 03 bd aa b5 01 be
       0.60317564 -0.40709135 -0.032090064 -0.12666956
000010 eb c6 85 3d 74 3d dd bd 19 84 5b be e8 54 1c bd
       0.06532081 -0.10802737 -0.2143711 -0.03816691
000020 c5 19 6e 3d 62 a9 91 3e 0a 92 57 3e 54 e6 f1 3d
       0.058130044 0.2844954 0.21051803 0.1181151
000030 35 fe e1 be 91 4c b4 3d 39 ef 90 be 54 a9 da be
       -0.44139257 0.088036664 -0.28307512 -0.42707312
000040 68 fc c5 3d a8 e0 84 bd 92 dd f7 bd 9f 1c c8 3e
       0.09667283 -0.06488162 -0.12102808 0.39084336
000050 80 aa 25 be fc 6e 2c be 37 51 06 3f 8a aa 03 3f
       -0.16178322 -0.16839212 0.52467674 0.51432097
000060 82 95 bb 3e 93 71 3d be 9a 9f c7 be c8 8c e8 bc
       0.36637503 -0.18500356 -0.38988954 -0.028387442
000070 61 ea c9 3e a8 1e 34 3e 67 42 fc 3e 0e a5 d5 bd
       0.3943663 0.1758982 0.4926941 -0.10431872
000080 90 8a 43 be 1e d4 99 be 03 e7 a4 3d f2 2a ff bd
       -0.19095826 -0.30044645 0.080518745 -0.12459363
000090 0a 66 d7 be b9 37 4f bf 08 91 87 be e4 6d d1 3c
       -0.42070037 -0.809444 -0.26477838 0.025565095
0000a0 27 d7 5d be 8f 33 66 be 2f 1a 85 3e 8c 16 ea 3e
       -0.21664105 -0.22480606 0.2599654 0.45720327
0000b0 33 fb 7c 3d e0 b6 d9 3e 44 a5 04 bf ae 48 27 be
       0.061763 0.42522335 -0.51814675 -0.16336319
0000c0 ed 9a f8 be 83 d2 b4 3e 29 bf 8a be f7 ca 46 be
       -0.485557 0.35316858 -0.2709897 -0.19413362
0000d0 af 8a 95 3d 2f 94 75 be c3 0b 27 3f 23 1a a8 3e
       0.073018424 -0.23982309 0.6525232 0.3283244
0000e0 23 27 5c 3d 71 b3 0f be 1c bc 8d 3e 43 74 9d 3c
       0.05374826 -0.14033295 0.2768258 0.019220477
0000f0 eb 26 dd 3e e6 f0 6d 3e 5d 7d 43 3f bd 85 58 be
       0.43193755 0.23236427 0.76363164 -0.21144767
000100 0a 38 f7 3d 5e 7b 19 3e f4 21 4b 3e 77 58 ee be
       0.120712355 0.14988467 0.19837171 -0.46551868
000110 05 5a b0 3e f1 3a 05 3e 35 d7 97 3e b9 3a 9d bc
       0.3444368 0.13010766 0.29656377 -0.01919304
000120 0d e9 15 bf 87 25 4d 3e 84 2d 8a be 64 73 ab 3e
       -0.5855873 0.20033847 -0.2698785 0.33486474
000130 79 67 2f bf ab 1b b9 be d5 1c 2e be bd c8 07 be
       -0.6851726 -0.3615392 -0.17003186 -0.1326017
000140 3e 80 92 3e 14 0b 22 3e 2b 63 16 3e e5 fd 0d 3e
       0.28613466 0.15824538 0.14686267 0.13866384
000150 3b 72 01 bf 7c f7 03 bf 45 a2 c6 be fb 21 33 3c
       -0.50564927 -0.51549506 -0.38795677 0.010933395
000160 91 09 4f 3e 5c d0 92 3e d4 c4 15 be b8 6a e5 be
       0.20218493 0.2867459 -0.14625865 -0.44807982
000170 e9 a5 6e 3e 5f 5b 2d bf 4b ed 2c be b5 f1 b9 be
       0.23305477 -0.67717546 -0.16887395 -0.3631722
000180 54 46 8f bb c8 10 2f bd 9a e9 20 3e 48 b2 de be
       -0.0043723974 -0.042740613 0.15714112 -0.43495393
000190 bb 73 08 3f 45 f8 ae 3e 78 94 00 3f 9d 5d 37 be
       0.5330159 0.3417379 0.50226545 -0.17906804
0001a0 0e 8c fc 3e 23 45 38 3e d0 46 57 bb e2 2b 6b 3e
       0.49325603 0.17995124 -0.0032848604 0.22965959
0001b0 a4 ce 89 3e 9b de 33 bf 00 49 6a bb 5d 48 c2 3d
       0.26915467 -0.70261544 -0.0035749078 0.094864585
0001c0 58 cd d2 be d0 f3 e1 bc b9 43 03 3e 43 c1 af be
       -0.4117229 -0.02758208 0.12818803 -0.34327134
0001d0 b7 6b c4 3c 6f e3 4a bd 95 e9 84 3d 09 a1 b8 be
       0.023977144 -0.049533304 0.06489865 -0.3606036
0001e0 56 e5 37 3f 34 db 1c 3e 3d 04 b6 3d 32 c4 fd 3e
       0.71834314 0.15317994 0.08887527 0.49563748
0001f0 2a fc 94 3d d5 95 01 3f 10 e7 ca be 3a 08 de 3e
       0.07274659 0.5061925 -0.39629412 0.4336565

bn1.running_var f4 [128]
000000 b8 b5 e1 3d ea 4d d8 3d 39 bb 2c 3e 46 f8 03 3d
       0.11020988 0.10561736 0.16868295 0.032219194
000010 52 8b ce 3d a9 4d 55 3d ed d0 a4 3d c3 5a 41 3e
       0.10085167 0.052076016 0.08047662 0.18882279
000020 58 e7 98 3d 3e ad fb 3d 9d e1 02 3d 69 96 f4 3d
       0.07466 0.12288903 0.031953443 0.11942751
000030 d3 b0 a3 3d a9 52 a4 3d 2c ac dc 3d 94 1b 06 3e
       0.07992711 0.08023579 0.10775027 0.13096458
000040 2e ce da 3d 6d 08 11 3d ad 47 16 3e d9 52 97 3d
       0.10683857 0.035408426 0.1467578 0.07388849
000050 7f 3a 8d 3d c8 db b9 3d c8 4a 87 3d 2e 94 26 3e
       0.06895923 0.09075123 0.0660606 0.16267464
000060 de 1f 89 3d 83 ab ea 3d d9 db 64 3d 36 41 0c 3e
       0.06695531 0.114584945 0.055873726 0.13696751
000070 bc 7b ff 3d 3f 90 f6 3d fb 3c 58 3d 59 27 cf 3d
       0.12474772 0.120392315 0.05279253 0.10114927
000080 6e 1f ff 3d 9a 86 eb 3d 5d d9 db 3d 5a 01 8b 3d
       0.124571666 0.115002826 0.10734818 0.06787367
000090 dc 8c a4 3d 99 55 70 3d e8 8c 76 3e a0 5d 05 3e
       0.08034679 0.058675382 0.24077189 0.13023996
0000a0 b7 20 c6 3d 85 ef 2c 3d 6e 54 fe 3d 55 5b f5 3d
       0.096742086 0.04222061 0.124184474 0.11980311
0000b0 6d c7 ac 3d 17 22 aa 3d 57 ee df 3d 1e 0e 3b 3e
       0.08436475 0.08307283 0.109341316 0.18267104
0000c0 4c 73 65 3d 6e d2 5b 3d 12 98 b8 3d f1 bd fa 3d
       0.05601816 0.05366748 0.0901338 0.1224326
0000d0 c5 ad d2 3d 71 a6 c8 3d 93 ae 35 3e 41 9e 3e 3d
       0.1028705 0.09797371 0.17742376 0.04653764
0000e0 80 df 6a 3d 8e 19 ee 3d a3 f0 5e 3d e3 da 02 3e
       0.057342052 0.11625968 0.054428708 0.12778811
0000f0 49 65 bd 3d 84 24 42 3e a7 26 2c 3e 5f 23 ae 3d
       0.09247834 0.18959242 0.1681162 0.0850284
000100 50 79 84 3d 29 db 1f 3e 4b 0a f9 3d 80 73 8b 3d
       0.06468451 0.15610947 0.12160166 0.06809139
000110 ca f7 a7 3d ba 2e 9f 3d de d2 90 3d 6f 4a ee 3d
       0.08201559 0.07772584 0.0707147 0.11635291
000120 55 fb 0e 3e 63 fe 18 3e 8a 21 bb 3d a2 08 af 3d
       0.13963063 0.14940791 0.091372564 0.085465685
000130 6d fb 78 3e 3f 56 91 3d 41 5d 9b 3d e1 b0 91 3d
       0.24314661 0.07096528 0.07586146 0.07113815
000140 46 be 52 3d 52 9d 28 3e 1b 57 95 3d ae 50 21 3e
       0.05145099 0.16466263 0.07292005 0.15753433
000150 a9 9a 9e 3d d8 9f bc 3d ca fd 86 3d 07 b6 61 3d
       0.07744343 0.09210175 0.06591375 0.055105235
000160 e9 99 73 3e 8a 94 6d 3d 91 f2 b6 3d 5d 5f 75 3d
       0.23789181 0.058002986 0.089329846 0.0599054
000170 c7 94 c6 3d 61 50 85 3d 9d bf aa 3d 53 a9 ab 3d
       0.09696346 0.06509472 0.083373286 0.083819054
000180 1d df 21 3d ff 29 e2 3d 97 cf 17 3e 02 fa 04 3d
       0.039519418 0.11043166 0.14825283 0.03246499
000190 ab 87 77 3d b5 0f f0 3d 90 4f 16 3e 0d 3f 10 3e
       0.060432117 0.11721746 0.14678788 0.14086552
0001a0 f3 d2 9e 3d 96 e2 50 3d 74 45 8c 3d d8 57 8e 3d
       0.07755079 0.05099734 0.06849185 0.069503486
0001b0 ff 79 34 3e 32 6e d7 3d 6e e1 ee 3d 71 52 e3 3d
       0.17624663 0.10519065 0.11664091 0.11099709
0001c0 1d 42 fc 3d 59 bc 8b 3d d3 5b e4 3d d4 b1 b5 3d
       0.123172976 0.06823034 0.111503266 0.08871809
0001d0 3c 10 de 3d 20 0e c2 3d 54 60 09 3e 26 46 9a 3d
       0.1084294 0.094753504 0.13415653 0.07532911
0001e0 b3 fc d4 3d 4a d8 02 3e ce 9c 88 3d ae 95 b8 3d
       0.10399761 0.1277782 0.06670533 0.09012924
0001f0 af 61 f5 3c 02 05 17 3e 41 e6 60 3d 37 8c 1e 3d
       0.029953806 0.14748004 0.054907087 0.038707938

fc2.weight f4 [256, 128]
000000 80 2b 68 be 18 3a 07 3e 9e 66 f6 bd e7 f7 12 3e
       -0.22672844 0.13205755 -0.120312914 0.1435238
000010 71 e8 76 3d 84 d9 7f 3d e4 2b 14 3c 36 7d 6c 3e
       0.060280267 0.0624633 0.009043667 0.23094639
000020 99 1e 82 3c 9c a1 a3 bd 9f 70 32 be de df 6e 3e
       0.01588373 -0.07989809 -0.17425774 0.23327586
000030 e8 18 5e 3e e1 ba 7e 3d 20 b3 45 be 76 50 1e bf
       0.21689188 0.06218994 -0.19306612 -0.61841524
000040 9c 62 7f be 04 a5 66 be 0e 26 a1 be 94 92 ed 3c
       -0.2493996 -0.22523886 -0.31474346 0.029000558
000050 c4 fc 75 be 89 c8 52 3e 65 83 dc 3d 1b 14 de 3d
       -0.24022204 0.2058431 0.10767249 0.108436786
000060 51 f5 3f bd 42 fa 5e bd 44 a8 02 bf e1 ee 2c bf
       -0.04686481 -0.054437883 -0.51038 -0.67552
000070 4f 1a e5 3e 4c 03 e9 be 65 c9 20 be d3 8f 48 3e
       0.44746634 -0.45510328 -0.15701826 0.19586115
000080 ca 2a a8 3d 18 b6 3f 3e 10 9d ce bd e2 9a 0a be
       0.08211286 0.18721807 -0.10088551 -0.13535646
000090 9d fe dd 3d ca e7 70 bd b3 75 b3 be 19 2b 42 bd
       0.10839579 -0.0588148 -0.35050735 -0.047404382
0000a0 4d 84 58 3e 0c a4 68 bd 7e ee 56 3d 88 3d 4c bc
       0.21144219 -0.056797072 0.052473538 -0.012465842
0000b0 f4 a9 d1 3d 2e 0c ab 3d cc 39 9f bc 95 78 2c 3e
       0.10237494 0.083519325 -0.01943674 0.16842873
0000c0 57 02 0d be 59 30 10 bd 6d 38 db 3e 9e 93 09 bd
       -0.13770424 -0.035202358 0.42816487 -0.033588044
0000d0 83 98 82 be cd d2 2f be b4 d3 0f 3d b7 29 2d bd
       -0.25506982 -0.17170258 0.035114005 -0.04227611
0000e0 74 ac 29 be 31 80 de bd 8c a6 cd bd 7c 2f 0f be
       -0.16569692 -0.10864294 -0.10041532 -0.13982958
0000f0 ec 63 91 3b c0 4c 5d be 31 b1 40 bb a6 3e 64 bd
       0.0044369604 -0.21611309 -0.002940249 -0.05572381
000100 74 e1 6e bd b2 81 cc bc e5 0b 19 3d 1d 81 c1 3e
       -0.058320478 -0.024964187 0.03736486 0.37793818
000110 03 5b 60 3c a1 c6 07 3e 3d a5 ab be 36 47 c7 bd
       0.013693574 0.13259365 -0.33524504 -0.09730379
000120 37 2a bc be d5 74 8c bb 3d 22 44 3e 23 da 2d be
       -0.36750957 -0.0042863884 0.19153686 -0.16977744
000130 2a 7a e1 3c 73 d9 f7 bd 8e c7 05 3e ab 2f 0c bd
       0.027524073 -0.12102022 0.13064405 -0.034225147
000140 25 7a e7 be 1f 4c 96 b9 22 9c 9b bb 59 44 19 3e
       -0.45210376 -0.00028666944 -0.004748837 0.14967479
000150 3d b6 1c 3e 15 41 d0 3d 8a 26 35 be 83 ff dc 3d
       0.15303893 0.101686634 -0.17690483 0.107909225
000160 52 8b 17 3e 49 b0 55 be 26 b0 06 bf d3 97 0b be
       0.1479924 -0.20868029 -0.5261253 -0.13632135
000170 bb bd d0 3d dd 03 84 3d 85 95 d1 3b 71 60 3f 3d
       0.10192438 0.06446049 0.006395998 0.046722833
000180 49 c2 a0 bd 4c f8 09 3e 2a 5b c9 bd 16 50 0b bd
       -0.07849557 0.13473624 -0.09831841 -0.034011923
000190 d6 0c 2b 3e 9e 10 2f 3e 6c 62 4a 3e eb 2d 96 be
       0.16704115 0.17096183 0.19764107 -0.29331908
0001a0 00 d4 df 3d 72 ee 32 3d d5 14 91 be d1 b7 00 bb
       0.10929108 0.04368443 -0.28336206 -0.0019640813
0001b0 c7 36 0d 3e de ff 9b bc 1e ab 3b bd 0d bd 37 3e
       0.13790427 -0.019042905 -0.045817487 0.17943211
0001c0 86 3c 86 3c 47 fe fd 3d 2d b4 ba bc 9c 04 32 3e
       0.016386282 0.12402015 -0.022790993 0.17384571
0001d0 34 92 32 3e 3d 21 bf 3e 84 cc d0 bd 69 3f 1b 3e
       0.17438585 0.37330046 -0.10195258 0.15160908
0001e0 87 f4 48 3e 6c 59 e4 bc 9d 70 84 3e 9c 01 48 3d
       0.1962453 -0.02787467 0.25867167 0.04882966
0001f0 a7 a5 e9 3d 94 2b e0 3d 2a 28 46 3e d0 f4 3f 3d
       0.11408549 0.10945812 0.19351259 0.04686433
000200 2c 38 da 3d 3e bc 55 3d 4f 53 19 3e f8 58 aa bc
       0.10655245 0.052181475 0.14973186 -0.020794377
000210 26 da 27 bd d3 ac 34 3e dc bb 7a 3e a6 99 dd bd
       -0.040979527 0.17644052 0.24485725 -0.10820322
000220 a0 9f 82 3e 3c a5 0b be 97 c8 93 bb 81 94 fe bb
       0.2551241 -0.1363725 -0.004509996 -0.007769168
000230 c4 24 e1 3d ff 27 c7 be de fb 9d 3e e3 b0 ce 3d
       0.109933406 -0.38897702 0.30856222 0.10092332
000240 be e4 8a 3c f5 dd 7d 3e de f9 65 3d 90 f5 5e be
       0.016954776 0.24791701 0.056146495 -0.21773362
000250 ca 10 04 3e a4 d3 89 ba fa 8a 4f 3e d0 5f 9b bd
       0.1289703 -0.0010515344 0.20267859 -0.07586634
000260 85 88 f5 3d 07 32 34 be 85 04 b4 3e c2 d8 74 3e
       0.1198893 -0.17597209 0.35159698 0.23910812
000270 77 e6 ff bc ac 26 bf bc 7b 85 89 3e bd 68 0f bc
       -0.031237824 -0.02333387 0.2685965 -0.008752999
000280 60 51 ae bd a3 57 05 3e 1e 16 0b 3e 90 89 8e 3e
       -0.08511615 0.13021712 0.13582656 0.27839327
000290 e7 13 49 3d fd 8a 47 3d d8 e6 2b 3e df 95 aa 3d
       0.049091246 0.048716534 0.16787279 0.08329367
0002a0 8c f3 3b bd 0f 0a d7 bc 6c 8d 2a 3d 60 5b 83 bd
       -0.04588656 -0.026249913 0.041638777 -0.06413913
0002b0 74 01 0f bd f5 60 d2 bd dc 58 54 3e 7c 0a 04 be
       -0.034913495 -0.10272399 0.20737022 -0.12894624
0002c0 42 8d 59 3d 8b 73 de 3c 15 db 01 3e 06 b2 ca bd
       0.05311323 0.027154705 0.1268123 -0.098972365
0002d0 71 87 e2 ba 7d 9d a4 bc a3 25 db bd 2d b6 3d 3e
       -0.0017282796 -0.020094628 -0.10700538 0.18526526
0002e0 46 72 0d 3e c0 45 ee bd 39 24 21 be 6e 73 3b 3e
       0.13813123 -0.116343975 -0.15736474 0.18305752
0002f0 69 71 1a 3e 05 3f 05 be 84 9f c3 3d 0e 1f 1f 3e
       0.15082325 -0.13012321 0.095519096 0.1553919
000300 28 77 55 3e 15 5d 0a 3e ac 93 f9 bc 48 7d 55 bd
       0.20846236 0.1351207 -0.030465923 -0.05212143
000310 3a 4e ec bd 64 2b be bb 1b 90 54 3e 72 79 29 3e
       -0.11538358 -0.0058035124 0.20758097 0.16550234
000320 36 ea be bd 55 d5 00 be df f1 92 3d 74 c3 0f 3e
       -0.09322016 -0.1258138 0.071750395 0.14039403
000330 d1 d3 b5 3d 14 14 ef bb 8e f1 09 3e 6e fd 37 3e
       0.088782914 -0.0072960947 0.13471052 0.1796777
000340 65 1d 77 3e b7 ad 7b bd b4 09 29 3e c3 c6 ed bd
       0.24132307 -0.061444964 0.16507608 -0.116101764
000350 93 0a ee 3a 9b 10 16 bd 75 22 2e 3e 1c 87 0a 3e
       0.001816111 -0.03663693 0.17005332 0.13528103
000360 04 1f b5 be ea 9f 18 3e 59 6b bb bd 62 6a 89 3e
       -0.35375226 0.14904752 -0.09151334 0.26838976
000370 e7 f4 68 be c9 23 99 3e 2d 2b 2d be 52 a0 21 3e
       -0.22749673 0.29910114 -0.16911002 0.15783814
000380 bb 03 12 3e ca 8f 60 bd b4 b0 64 bb a8 28 45 3e
       0.14259236 -0.054824628 -0.0034895362 0.1925379
000390 c2 c3 2b 3e 5a 39 ff 39 b9 51 17 be 16 81 8a bc
       0.16773894 0.0004868012 -0.14777268 -0.016907256
0003a0 f3 49 6e 3e ec 01 84 3e 33 4f 09 be a0 d4 fe 3d
       0.23270397 0.25782716 -0.13409118 0.12442899
0003b0 44 53 e0 bd 82 30 ae bd 2d 48 a0 3e 3f ae 1f be
       -0.10953382 -0.08505346 0.31305066 -0.15593813
0003c0 1c 5e 95 be c8 4a ca be 7a 82 e1 3d 7c 27 a9 3c
       -0.29173362 -0.3951018 0.110112146 0.02064871
0003d0 bd 6a d1 be 84 d6 37 be 7e 14 01 be 61 ed e5 3d
       -0.40901747 -0.17952925 -0.12605473 0.11226917
0003e0 8b 92 c4 3d c7 49 a8 be a8 2e 86 be 03 6b 8f 3e
       0.09598263 -0.32868788 -0.2620747 0.2801133
0003f0 80 24 88 3d e2 94 81 be 62 09 de 3d 1b 54 bc bd
       0.06647587 -0.253089 0.108416334 -0.09195729

fc2.bias f4 [256]
000000 01 26 f4 bd 25 ea 8f bd 1c c2 e3 3b ec aa 8a 3c
       -0.11921311 -0.070270814 0.00695063 0.016927205
000010 03 bd ec 3d c8 99 b9 bd 37 89 1e bd 15 05 17 b9
       0.115594886 -0.090625346 -0.038705077 -0.00014402375
000020 70 bd 62 3e 24 9d b8 3d bc 9a 6b 3d e8 51 14 3e
       0.22142577 0.09014347 0.057520613 0.1448437
000030 1a 2c 80 be 9a c2 46 bd dd f9 1c bd ab 50 9f bd
       -0.25033647 -0.04852543 -0.038324226 -0.07779058
000040 ce 6d cd bd 34 7d 46 bc d7 15 a3 bd 41 33 d4 3d
       -0.10030709 -0.012114812 -0.0796315 0.103613384
000050 d2 06 81 3d bd bb b7 bd 9d 7d 4f 3c 34 90 22 bd
       0.06300129 -0.08971355 0.012664226 -0.039688304
000060 4e 95 23 3c 77 80 0d bd 2a 47 50 bd c6 7b 67 bd
       0.0099843275 -0.03454634 -0.050849117 -0.056514524
000070 cd 4f 24 bd b7 cf 39 3d 5d 9b 48 be f2 26 20 be
       -0.040115166 0.045364108 -0.19590516 -0.15639856
000080 f6 16 b0 bd eb 83 ac bc 08 6c 62 bd ba 30 99 bd
       -0.085981295 -0.021058997 -0.055278808 -0.07479997
000090 8f cc e7 b9 de 93 08 3c 0b 8b 94 3d d2 6d f5 3d
       -0.0004421216 0.008336036 0.07253083 0.11983837
0000a0 0b 0b d7 bd a2 08 44 be 4d c8 44 bd 72 c8 91 b9
       -0.10500153 -0.19143918 -0.048042584 -0.000278059
0000b0 1b 6d f9 3d 2a 31 5f be 0f 91 5e 3e d2 5d 7a 3d
       0.12179013 -0.21796098 0.21735023 0.06112463
0000c0 18 fb 2d 3d c2 6e dc 3d d6 2a 91 bd d2 11 4f bd
       0.04247579 0.10763313 -0.070882484 -0.050554104
0000d0 4c 2f ba 3d 45 f0 ef bd 30 d7 dc bd ff ca 37 be
       0.090910524 -0.1171575 -0.10783231 -0.1794853
0000e0 0b 9b d4 3d 83 ef 75 3d 46 05 83 bd d2 9a d9 3d
       0.103811346 0.06004287 -0.0639749 0.10625233
0000f0 39 cb 8d 3c ab 1a 9c bb 3f 0a 9d 3c 76 03 be bc
       0.017308818 -0.0047639213 0.019169925 -0.02319501
000100 6c df 05 bd 53 dd 11 3e 6f 31 7c 3e ca fd d3 3c
       -0.032683775 0.14244585 0.24628232 0.025877852
000110 a7 66 83 bd d5 b1 12 be 12 98 32 bd 9a 65 2e be
       -0.06416064 -0.1432565 -0.043602057 -0.17030945
000120 ba 4c ed bc 4d cf dd 3c 9f 55 3e 3e 03 0b 89 3e
       -0.02896725 0.027076388 0.1858735 0.26766214
000130 dc 77 87 3d 7a 09 30 bd c2 2b bc bd 49 81 b1 bc
       0.06614658 -0.042977788 -0.09188034 -0.021668093
000140 ce a0 ad bd ff f3 5b bd 6f f2 1e be 4f ce fc 3c
       -0.08477937 -0.05369949 -0.15522169 0.030860094
000150 ee 36 72 bd fb 38 d0 bd e0 58 62 3d 00 54 b0 3d
       -0.059134416 -0.10167118 0.05526054 0.08609772
000160 ac 70 8c bd 86 c4 57 bd 12 ba e9 bd 45 a7 05 3d
       -0.06857428 -0.052677654 -0.11412443 0.032630224
000170 c7 0f 63 bd 9f 0d 15 3d ed e6 8b 3d f0 b4 22 ba
       -0.05543497 0.036389943 0.06831155 -0.00062067714
000180 c3 57 f8 bc ff 83 67 bd 03 2d 3f bb 49 12 d4 3d
       -0.030315286 -0.056522366 -0.0029171116 0.1035505
000190 07 b7 d7 bd 80 20 53 bd 79 3b 04 bc 73 8b 17 3e
       -0.105329566 -0.051544666 -0.00807082 0.1479929
0001a0 e9 8c 40 3b 7d c9 b1 3d 48 1f d7 3d 70 bf 99 3e
       0.0029380864 0.08681009 0.10504013 0.30028868
0001b0 98 14 77 bb 20 34 9e bd c3 b2 d9 bd 23 4d 72 be
       -0.0037701484 -0.07724786 -0.10629799 -0.23662238
0001c0 0e 61 0e 3e 00 00 15 3c 25 47 39 be cc eb ae 3d
       0.13904211 0.009094238 -0.18093546 0.085410684
0001d0 8c df 34 bd 30 6f 68 3e 99 65 cd 3c b5 6e eb 3d
       -0.044158503 0.22698665 0.02507286 0.11495725
0001e0 91 a3 a4 bd 42 8d 0e be f1 99 1a 3d e1 ca 77 bd
       -0.0803901 -0.13921073 0.037744466 -0.060496215
0001f0 d9 8f 16 3d 2b 1d da bc 3d 2f 02 3e 7e 47 66 be
       0.036758278 -0.026625236 0.12713332 -0.2248821
000200 17 37 5c 3d 03 64 b3 3c 0d 72 98 3c f0 3f ff 3d
       0.053763475 0.021898275 0.018609071 0.12463367
000210 cb 3e 39 3d ee 53 0d 3c 7f 67 52 3b c7 a6 83 bd
       0.0452259 0.008625967 0.0032105146 -0.06428295
000220 ce e7 e9 3d 0d a3 0f bd 9e 02 35 bd cb 9a 6d 3e
       0.11421166 -0.035067607 -0.04419195 0.2320358
000230 17 78 12 be 33 0b 98 bd 94 b1 b7 bd fd df ce bc
       -0.14303623 -0.07424011 -0.08969417 -0.02525329
000240 77 cb 9c 3c 3f 50 d6 bd 7d ee 19 bd 38 3e 80 bd
       0.019139988 -0.104645245 -0.037580956 -0.06261867
000250 b5 a6 22 3c f6 d2 14 3e 86 2a c7 bc bb da f6 3c
       0.009927441 0.145336 -0.024312269 0.030133596
000260 9d b3 52 be 9d 4a ce bd a5 49 4f bd 98 89 6d bd
       -0.2057633 -0.10072825 -0.050607342 -0.057992548
000270 8a 6c b1 3d 85 22 c9 bd 78 3c e9 bd 19 58 21 be
       0.0866328 -0.09821037 -0.113884866 -0.15756263
000280 bc e1 a3 3d a1 4f d5 bd de ae 3f bd c4 f8 e8 bc
       0.0800204 -0.10415579 -0.046797626 -0.028438933
000290 99 97 c5 bd 6a 37 4d be 4b a4 98 be e0 38 96 3d
       -0.096480556 -0.2004067 -0.29812846 0.07335067
0002a0 ab 38 1b 3e 4e a0 bc 3d 93 2a 0d 3e 1c a8 9e 3d
       0.15158336 0.09210263 0.13785772 0.07746908
0002b0 1a b9 56 3d 6f 2c 71 3d bf 4d 34 3d 42 2d 28 3c
       0.05242262 0.058880266 0.044019457 0.010264697
0002c0 3a c9 31 3d fe 08 c0 3d 64 6d 4a 3e 99 94 14 3c
       0.043404795 0.09376715 0.19768292 0.009068632
0002d0 1c 38 98 bd c9 12 97 3d d2 93 6b bd ff 9d 14 3e
       -0.07432577 0.0737663 -0.05751402 0.14513396
0002e0 ae 77 14 3e ba a2 2e be 97 b7 03 3d 9e d7 08 3e
       0.14498779 -0.17054263 0.032157507 0.13363501
0002f0 4c c3 e5 3d 63 26 ab 3d 2b 47 00 bb 2c 2e 08 3e
       0.112188905 0.08356931 -0.001957367 0.13298863
000300 09 1e 7f 3d 50 69 b1 bd 4f 96 1d bd db 75 eb bc
       0.062284503 -0.08662665 -0.038473424 -0.028742721
000310 9d 9a 99 bd 9a 24 39 be 90 7b 63 bd 6c 6d 41 be
       -0.07500193 -0.18080369 -0.05553776 -0.18889397
000320 29 ea 0a 3d 9c 9a 23 be 99 10 1d 3d 73 0e eb 3d
       0.03391472 -0.15976948 0.038345907 0.11477365
000330 1e e1 dd bd da 9c 8a bc 79 d9 18 bd 06 87 6f 3d
       -0.10833953 -0.016920496 -0.037316773 0.058478378
000340 89 6c f7 3d fa 83 bd bb 23 8c b6 3d 7a bb aa 3d
       0.12081248 -0.005783555 0.08913448 0.083365396
000350 9f 06 a7 3d 8b ea c7 bb 75 b4 03 bd 70 31 6a bd
       0.0815556 -0.0061009577 -0.03215452 -0.057176054
000360 af 65 f7 3c 40 80 43 3d d7 7b 02 be 20 14 60 bc
       0.030199854 0.04772973 -0.12742554 -0.013676673
000370 74 81 42 bd 9f 88 e3 3d 58 9f 04 3e 56 43 b7 bd
       -0.047486737 0.11110043 0.1295141 -0.0894839
000380 85 05 93 3d ca 6b d1 3d 07 dd 91 bc 86 6c 9b bd
       0.07178787 0.10225637 -0.01780559 -0.075890586
000390 85 de d4 3d 38 c8 08 3e dc 65 1e 3d d4 a5 5a 3e
       0.10394005 0.13357627 0.03867136 0.21352321
0003a0 a3 63 5d bd 20 0a d1 3d f1 01 8b 3c 5b 06 01 3c
       -0.0540501 0.10207009 0.0169687 0.00787505
0003b0 ab 5b 3d bd 59 40 b1 3d ae 5f 2b bd f7 3b d3 bd
       -0.04623 0.086548515 -0.041839294 -0.10314172
0003c0 ff 6d 8a 3d 3d 0d 0f 3d 02 d2 4a bd 15 11 54 3b
       0.06759261 0.034924734 -0.049516685 0.0032358814
0003d0 63 49 82 bd 07 1d 1b bb ff 74 98 bd c4 a1 32 3e
       -0.06361654 -0.0023668425 -0.0744419 0.17444521
0003e0 e8 7c 3e bc a5 33 03 3d cd 7f b7 3d 15 6f 85 bc
       -0.01162646 0.032031674 0.08959923 -0.01628832
0003f0 6a 52 e1 bb a9 d2 80 3d 74 5f 98 3d 34 db 3a bd
       -0.0068762796 0.0629018 0.07440081 -0.045619205

bn2.weight f4 [256]
000000 09 6c 80 3f 4c 18 82 3f 77 6d 8f 3f ed 1a 69 3f
       1.003297 1.0163665 1.1205281 0.9105671
000010 eb bd 89 3f e6 46 6c 3f 9f 75 83 3f 82 34 95 3f
       1.0761083 0.9229568 1.027027 1.1656649
000020 cf 7c 91 3f 39 26 86 3f 55 d1 9e 3f 69 aa 7e 3f
       1.1366214 1.0480415 1.2407633 0.99478775
000030 46 c7 9c 3f 7c 00 78 3f 78 ef 81 3f 07 8d a0 3f
       1.2248313 0.9687574 1.0151205 1.2543038
000040 93 a5 93 3f 65 6f 92 3f 59 22 ac 3f 9d 47 a0 3f
       1.1534904 1.1440245 1.3447982 1.2521855
000050 d9 03 95 3f 0c b6 7c 3f ad 27 aa 3f ae 8e 78 3f
       1.1641799 0.9871528 1.3293358 0.9709271
000060 73 19 77 3f 1d fc 4e 3f 29 7c 8f 3f d1 4e 88 3f
       0.9652321 0.80853444 1.1209766 1.0649053
000070 95 e6 54 3f dd cc ae 3f 97 03 94 3f af 52 93 3f
       0.8316434 1.3656269 1.1563596 1.1509608
000080 0f 45 90 3f 95 58 3e 3f 9e 4b a1 3f 73 46 83 3f
       1.1271075 0.74353915 1.2601202 1.0255874
000090 58 93 85 3f 04 07 a0 3f 72 75 9d 3f b9 2d 65 3f
       1.0435591 1.2502141 1.2301466 0.8952289
0000a0 36 07 6b 3f ad 1c 82 3f 0b a5 8f 3f 05 88 97 3f
       0.9180788 1.0165001 1.1222242 1.1838385
0000b0 e7 53 75 3f b5 44 94 3f b8 bb 6b 3f 31 b9 aa 3f
       0.9583115 1.1583468 0.9208331 1.3337766
0000c0 01 61 95 3f e9 bf a9 3f 1d 04 a6 3f f4 75 51 3f
       1.1670228 1.3261691 1.2970005 0.8182061
0000d0 e1 2c 84 3f d6 37 72 3f 8a 6a 94 3f 0f 97 46 3f
       1.0326196 0.9461645 1.1595013 0.7757425
0000e0 d4 45 6f 3f 21 3e 97 3f 3d fe 99 3f 37 62 72 3f
       0.93465924 1.1815835 1.2030712 0.94681114
0000f0 01 82 62 3f 81 82 8d 3f eb a1 8a 3f 8c a8 95 3f
       0.8847962 1.1055452 1.0830663 1.1692061
000100 99 11 6c 3f 09 70 7e 3f da 25 93 3f a8 d5 af 3f
       0.9221435 0.993897 1.1495926 1.3737078
000110 d2 2a 7c 3f af 99 5c 3f 11 e4 a5 3f 44 39 a7 3f
       0.9850284 0.86172 1.2960225 1.3064351
000120 3f a4 8d 3f f9 99 75 3f 9b e3 8f 3f 34 34 a6 3f
       1.1065749 0.9593807 1.1241335 1.2984681
000130 fd 2c 9c 3f ca 2c a0 3f 1b 3f 79 3f 6a f9 93 3f
       1.2201229 1.2513669 0.97361916 1.156049
000140 7b 03 9f 3f ce ff 90 3f c8 11 86 3f fb 68 76 3f
       1.2422937 1.1328065 1.0474176 0.9625394
000150 60 81 83 3f e4 23 63 3f 99 5c 8e 3f 1a 8c 85 3f
       1.0273857 0.8872664 1.1122009 1.0433381
000160 7b 2d 8b 3f 7a be 89 3f b0 21 88 3f f2 a8 58 3f
       1.0873255 1.0761254 1.0635281 0.8463279
000170 c5 f7 65 3f 7a fe a0 3f 26 82 7d 3f 00 b8 a2 3f
       0.8983119 1.257766 0.99026716 1.2712402
000180 22 fa 8b 3f 45 b1 81 3f d9 a6 b1 3f cf eb 4b 3f
       1.093571 1.0132223 1.3879043 0.7965669
000190 91 0a 8b 3f 13 d0 98 3f 2b 70 9f 3f 55 b2 73 3f
       1.08626 1.1938499 1.2456106 0.9519399
0001a0 a7 af 87 3f 9a 2c 59 3f 61 a0 bb 3f 82 94 96 3f
       1.060048 0.8483368 1.4658319 1.1764071
0001b0 f6 58 a2 3f f0 b5 82 3f 73 da 6d 3f b3 0d 66 3f
       1.2683399 1.0211773 0.9291145 0.89864653
0001c0 8f bf 83 3f 69 76 70 3f 69 2c 86 3f d1 96 66 3f
       1.0292834 0.9393068 1.0482303 0.9007388
0001d0 8c 0e 7b 3f 2a 76 9d 3f 38 ae 91 3f fa 6e 95 3f
       0.9806907 1.2301686 1.1381292 1.1674492
0001e0 fd c4 7e 3f 5d 2d a4 3f ad 5b 63 3f 74 c7 86 3f
       0.9951933 1.2826344 0.8881176 1.0529618
0001f0 0d 9d 8f 3f c9 ca 6a 3f 52 de 89 3f f9 5c 90 3f
       1.1219803 0.91715676 1.0770972 1.1278373
000200 8b 0f a5 3f b2 64 71 3f 24 4d 5f 3f 23 63 55 3f
       1.2895368 0.94294274 0.8722708 0.83354396
000210 b8 ea aa 3f 56 e9 8a 3f 6b 0a 7f 3f 36 d8 8e 3f
       1.335288 1.0852458 0.9962527 1.1159732
000220 27 73 8a 3f b1 6e 75 3f c5 44 95 3f 7b c7 51 3f
       1.0816392 0.95872027 1.1661612 0.8194501
000230 75 08 62 3f b6 12 81 3f 57 a0 9c 3f 54 9c 8a 3f
       0.88294154 1.0083835 1.2236432 1.0828958
000240 ee e5 6a 3f 8e 67 82 3f 74 5f 85 3f 63 0b 3f 3f
       0.91757095 1.0187852 1.0419755 0.7462675
000250 6a 77 75 3f b4 7b 82 3f 85 b7 9d 3f 5e 9b 92 3f
       0.95885336 1.0194001 1.2321631 1.1453664
000260 0c 51 61 3f 34 a7 92 3f 6f 38 9d 3f a8 48 5f 3f
       0.8801429 1.1457276 1.2282847 0.8722024
000270 4f a2 76 3f 0b ef a6 3f f9 c4 5c 3f e1 d8 97 3f
       0.96341413 1.30417 0.86238056 1.1863061
000280 b2 e9 90 3f 97 47 8f 3f af 29 67 3f 87 96 9a 3f
       1.1321318 1.1193722 0.9029798 1.2077187
000290 22 04 75 3f b2 3f 5d 3f 8a 0e 81 3f 25 ec 81 3f
       0.9570943 0.86425316 1.0082562 1.015019
0002a0 6e c6 86 3f 6b 0a 95 3f b4 6e 91 3f 40 2f 8a 3f
       1.0529306 1.1643804 1.1361909 1.079567
0002b0 c8 ae 9f 3f bc 33 85 3f 53 0f 91 3f f4 07 8c 3f
       1.2475214 1.0406413 1.1332802 1.0939927
0002c0 46 8f 9a 3f a1 87 7e 3f dd 46 96 3f 7c d5 87 3f
       1.2074974 0.99425703 1.1740376 1.0612025
0002d0 7a 76 ae 3f ce 09 7b 3f f5 5a 5f 3f 98 44 9a 3f
       1.3629906 0.98061836 0.87248164 1.2052183
0002e0 16 cd 6d 3f 80 46 87 3f 08 dd 8c 3f 5b 6b 8b 3f
       0.9289106 1.056839 1.1004953 1.0892137
0002f0 4b 18 91 3f 06 81 6c 3f e9 c1 79 3f ad 52 68 3f
       1.1335539 0.92384374 0.9756151 0.90751153
000300 df aa 9e 3f 87 1e 93 3f 6a bb 8f 3f e8 9f 7c 3f
       1.2395896 1.1493691 1.1229069 0.986815
000310 0d ee 9e 3f d1 ee 8e 3f ae 72 8a 3f 62 d0 a0 3f
       1.2416397 1.1166631 1.0816247 1.2563593
000320 33 e2 b7 3f 2f 03 9e 3f 8c cc 8a 3f 55 f2 97 3f
       1.4365906 1.2344722 1.0843673 1.1870829
000330 85 0b 82 3f 5f fb a8 3f c0 23 8d 3f 80 39 9c 3f
       1.0159765 1.3201712 1.1026535 1.2205048
000340 6f f6 ae 3f 5f a5 a2 3f 7b 90 67 3f b2 c5 9a 3f
       1.3668956 1.2706717 0.90454835 1.2091582
000350 99 99 6c 3f 4a af a4 3f 82 6e 51 3f 45 41 a2 3f
       0.9242187 1.2865994 0.81809247 1.2676169
000360 42 54 5c 3f ff e6 7c 3f ac 09 60 3f 25 63 6f 3f
       0.8606607 0.9878997 0.8751476 0.9351066
000370 56 6c 60 3f f5 99 82 3f 70 2c a4 3f 4a 0e 81 3f
       0.8766531 1.0203234 1.2826061 1.0082486
000380 d0 d1 64 3f a8 b2 aa 3f 55 48 8d 3f ed 47 62 3f
       0.8938265 1.3335772 1.1037699 0.88391
000390 4f 2d 64 3f c6 b2 6c 3f ee 19 9a 3f 35 b2 71 3f
       0.89131635 0.92460287 1.2039163 0.9441255
0003a0 29 d2 82 3f 89 36 b9 3f 3a 62 7d 3f 7a ca 68 3f
       1.0220386 1.4469768 0.98978007 0.90933955
0003b0 a9 2a b3 3f ab 3b 74 3f 62 98 76 3f c8 9f 6c 3f
       1.3997394 0.95403546 0.9632627 0.92431307
0003c0 ee 4e 51 3f ad 4f 80 3f 6e b5 93 3f 88 b3 79 3f
       0.8176106 1.0024315 1.1539743 0.9753957
0003d0 05 27 a4 3f 1a 7b 92 3f 6f 56 93 3f 8b c9 7e 3f
       1.2824408 1.1443818 1.1510752 0.9952628
0003e0 dc d6 62 3f 9c 60 88 3f 8f c8 87 3f 4b 50 91 3f
       0.886091 1.0654483 1.0608081 1.1352628
0003f0 2b 34 51 3f 8d ca b0 3f 5a 73 83 3f de 67 98 3f
       0.81720227 1.3811814 1.0269578 1.1906698
